hand-gesture-recognition/model/point_history_classifier/point_history_classifier.tflite (tflite, 13520 bytes, 8 tensors)

sequential_5/lstm_5/Read_2/ReadVariableOp f4 [64]
00000000: 3b4a d23e 04f6 8b3e 1b28 9e3e a7c5 ea3d
00000010: 9211 063f 6b01 dd3e 643f a23e 8aeb 8d3e
00000020: 9ed3 443e 73ee a93e 6b96 993e fb1c b63e
00000030: 132c a33e 3efa 233f 2b55 a13e 69e8 993e
00000040: d102 8f3f 6035 8f3f c039 843f 0ad9 a13f
00000050: 2df0 973f 5948 9e3f 3266 853f 487d 883f
00000060: 1b65 7f3f 4be6 933f 7fc1 833f eb0b 893f
00000070: eb73 933f 06fe 783f 0e01 8d3f b96f 9e3f
00000080: 5344 62bb 82b0 593a 16a2 1a39 e6f9 1ebd
00000090: 3f57 983c 8738 4fbb 7c0a 083d b957 c0ba
000000a0: 467e f1bc 38a8 813c 3ebd 22bd c623 52ba
000000b0: 7566 eb3c 79e3 6139 202b fa3c 1c26 be3c
000000c0: 7a04 0e3f a3f4 9b3e db63 a03e bf44 8b3e
000000d0: 81bd 093f 9e8e da3e 1a00 993e 638b ce3e
000000e0: 4b8b 613e 7e79 523e b537 b53e 51b7 b93e
000000f0: 260f b03e a79f 353f 728c a93e 0ea5 b03e
0.41072258 0.27336133 0.30889973 0.114634804 0.5237056 0.43165144 0.31688988 0.27718765
0.1922135 0.33189735 0.29997572 0.35568985 0.31869563 0.64053714 0.3151029 0.30060127
1.1172734 1.1188164 1.0330124 1.264436 1.1870171 1.2365829 1.0421813 1.0663233
0.9976365 1.1554655 1.0293425 1.0706762 1.151975 0.9726261 1.1015947 1.2377845
-0.0034525588 0.0008304195 0.00014746966 -0.03881254 0.01859629 -0.0031619386 0.033213124 -0.0014674581
-0.029479157 0.015827283 -0.039731257 -0.0008016195 0.028735379 0.00021542412 0.030538142 0.023211531
0.5547558 0.3046008 0.31326184 0.27200887 0.53804785 0.42686933 0.2988289 0.4034072
0.22025792 0.20554158 0.35394064 0.36272672 0.34386557 0.70946735 0.33114964 0.34500927

sequential_5/dense_11/BiasAdd/ReadVariableOp f4 [4]
00000000: 1e78 f23e 2d7e 9abe 40e5 0aba e2ef 01be
0.47357267 -0.3017439 -0.0005298443 -0.12689164

sequential_5/dense_10/BiasAdd/ReadVariableOp f4 [10]
00000000: 57a6 493f b3bd c7be 8f3e d23e 08b7 6e3e
00000010: 97d4 7a3f 00c5 803e 6995 fb3e 18a4 d53c
00000020: 00a1 9e3e 1e9c e53e
0.7876944 -0.39011917 0.41063353 0.23312008 0.97980636 0.251503 0.49137428 0.026079223
0.30982208 0.4484567

sequential_5/dense_10/MatMul f4 [10, 16]
00000000: f895 9fbe 64f0 313d d267 7fbd ca96 53bf
00000010: 5c46 5e3f 16fc 11bf b66e 4c3f 4962 c73e
00000020: 6c80 403e a1ce 3b3f ec7d e6be fc96 843f
00000030: 8ebc 663f 8888 b33c d1d3 b23e 202d 293f
00000040: 8b04 d53e 33ac f6bc 377f 913e 26bd 0d3f
00000050: 7eb2 bd3e d7bd c6bd 69a5 be3f a93d fe3d
00000060: 3669 d73d 160f 31be 6424 58be e5a3 a9bf
00000070: ad16 383f 0582 4fbe 97ec a03e 027a 32bd
00000080: dc76 61bf 0512 1dbf 8e86 80bd 5a19 693f
00000090: b964 863d 9ad5 153f a2de db3e 433e 76bf
000000a0: 6d53 33be 3406 f5be 8fe0 e1bb d54c d9bf
000000b0: 45e6 02bf 3988 fd3d 3409 873f c2a8 22bd
000000c0: 8acf b03e 3219 82be 5673 f33d e438 0abf
000000d0: 42a0 cf3c 7999 9c3e 69ef 06bf 2420 10bf
000000e0: dcfd aebd aaea b4be b93f 95be 2c5e 003f
000000f0: 76ce c1be 3712 aa3e e7b6 d7be 7ee0 44bc
00000100: eb4c 86be 77df aa3e 944c 213f e875 313e
00000110: bacc 183f 8480 14bc c478 693f 08b5 a23e
00000120: cf0a 5bbe 941c 2bbe 57e9 053e b831 ecbe
00000130: 9ec0 f73e 6f12 49bf 5e32 113f cb5a a8be
00000140: 5ed5 a13e eb46 34bf e8ba aebe a05f 7dbe
00000150: ed15 c53e d77f aa3e 10df 643e 5ae5 b53e
00000160: 0f77 853f 9291 0dbf 8a3d 25bf c0b6 98be
00000170: f526 803f 4ddb f03e 34da d0bd 343c 213f
00000180: 1587 0abf ec95 acbc 629d 59bd 0618 3c3f
00000190: 3b5f 573f fd66 853e 250d a63e 3632 82bf
000001a0: bafc 05bd b42c f6bd 6241 a63e 6d57 89bf
000001b0: ae28 96bf 237c 41bd 1b5a 813f 1638 943c
000001c0: 5405 30bf 7d4f ae3f 7e1b 96bf 9793 873f
000001d0: a4fd 16c0 ab61 99bd 2d75 c7bf 81e4 3c3f
000001e0: 21f1 633e 9594 3c3e 7bb2 0540 5f51 143e
000001f0: 5251 97bf 2b40 913f 67a6 f6bf ba76 b1bf
00000200: c5a8 db3d 9497 91bf 2798 f93d fab1 8abe
00000210: 15d4 063e cb52 983f 523b 62bf 4d98 9cbf
00000220: 41ad be3f 36af 96bf 69ee 40bf af62 07bf
00000230: 6bab 37bb 957b a33f a5c7 203f 5949 c33f
00000240: 8517 9ebe 5b57 a83d 96fd 4d3f 9c3f e5bd
00000250: f840 0d3e c760 883d a18b 70bc 90d7 ccbe
00000260: bfd9 b4bf ed0f 9bbd 1309 5bbe 6e6f 9dbe
00000270: 1307 55bf 6ab6 1ebf a8d8 843e 75b0 1abf
-0.31169105 0.043442145 -0.06235487 -0.8265196 0.8682611 -0.5702528 0.7985643 0.38942173
0.18798989 0.73362166 -0.45017946 1.0358577 0.9013146 0.02191569 0.34927228 0.6608448
0.4160503 -0.030111408 0.2841737 0.5536674 0.3705024 -0.09704178 1.4894229 0.124141045
0.10518114 -0.17290911 -0.21107632 -1.3253142 0.719096 -0.20264442 0.31430504 -0.043573387
-0.8807199 -0.6135562 -0.06275664 0.9105431 0.0656218 0.58529055 0.42943293 -0.96188754
-0.17512293 -0.47856295 -0.0068932245 -1.6976572 -0.51132613 0.12379498 1.0549684 -0.03971172
0.3453334 -0.25409847 0.11887233 -0.5399306 0.025344972 0.3058584 -0.5270906 -0.5629904
-0.085445136 -0.35335284 -0.2915018 0.50143695 -0.3785283 0.33217022 -0.4213173 -0.012016414
-0.2623056 0.33373615 0.63007474 0.17330134 0.5968739 -0.009063844 0.911999 0.3177874
-0.21390842 -0.1671012 0.13077293 -0.46131682 0.48389143 -0.7854375 0.5671748 -0.3288177
0.316081 -0.7042071 -0.34126973 -0.2474351 0.3849329 0.3330066 0.22350717 0.35526544
1.0426959 -0.5530025 -0.64547026 -0.29826927 1.0011889 0.47042313 -0.10197869 0.6298249
-0.5411237 -0.021067582 -0.053128608 0.73474157 0.84129685 0.26055136 0.32431903 -1.0171573
-0.032711722 -0.12020245 0.32471758 -1.0729805 -1.1731164 -0.047237527 1.0105623 0.01809315
-0.6875813 1.3618008 -1.172714 1.0591916 -2.359231 -0.07489332 -1.5582634 0.7378617
0.22259952 0.18416055 2.0890186 0.14484166 -1.1821692 1.1347708 -1.9269532 -1.3864357
0.107255496 -1.1374383 0.12187224 -0.2708891 0.1316684 1.1900266 -0.88371766 -1.2233979
1.4896623 -1.177222 -0.75363785 -0.52884954 -0.0028025757 1.2772089 0.62804633 1.5256759
-0.3087732 0.08219787 0.80465066 -0.11193773 0.13794315 0.06659084 -0.014681728 -0.4000821
-1.4128951 -0.07571397 -0.2139018 -0.30749077 -0.8321392 -0.6199709 0.25946546 -0.604255

sequential_5/dense_11/MatMul f4 [4, 10]
00000000: f95a 673f 39d6 9dbf 4ee5 06c0 16dc b3bf
00000010: baf1 c63e 1895 1bbf 49ab 6bbf 4269 71bf
00000020: cd1d bfbf 39c8 a93e 9651 a3bf 0aee dcbe
00000030: 9ff6 3c3f 5226 55bc 6803 04be a09c 96bf
00000040: 5dbb 1e3f 20a6 a33e a8ec ee3d 7ac0 353f
00000050: b2cf cdbe 755d 96bf c2f1 39be 5219 073f
00000060: 0667 dabf 342d be3e 9aa8 b9bf dc7b 1b3f
00000070: e75d 543f fba5 a3be d8ef 73be 5ae5 423f
00000080: d3b6 093f 4a15 ecbe 1354 02bf 5583 163e
00000090: 1263 eb3d 124c 853f 8585 403f e6fa 42bf
0.9037319 -1.2331 -2.1077456 -1.405154 0.38856298 -0.60774374 -0.92058235 -0.94301236
-1.493097 0.3316057 -1.2759273 -0.4315036 0.73813814 -0.013009625 -0.12891924 -1.1766548
0.62004644 0.3196268 0.11666232 0.7099682 -0.4019752 -1.1747271 -0.1815863 0.5277301
-1.706269 0.37143862 -1.4504578 0.6073587 0.82955784 -0.3196257 -0.23821962 0.7613121
0.5379459 -0.46109992 -0.5090954 0.14698537 0.114935055 1.041384 0.75203735 -0.7616409

sequential_5/lstm_5/Read_2/ReadVariableOp1 f4 [64]
00000000: 3b4a d23e 04f6 8b3e 1b28 9e3e a7c5 ea3d
00000010: 9211 063f 6b01 dd3e 643f a23e 8aeb 8d3e
00000020: 9ed3 443e 73ee a93e 6b96 993e fb1c b63e
00000030: 132c a33e 3efa 233f 2b55 a13e 69e8 993e
00000040: d102 8f3f 6035 8f3f c039 843f 0ad9 a13f
00000050: 2df0 973f 5948 9e3f 3266 853f 487d 883f
00000060: 1b65 7f3f 4be6 933f 7fc1 833f eb0b 893f
00000070: eb73 933f 06fe 783f 0e01 8d3f b96f 9e3f
00000080: 5344 62bb 82b0 593a 16a2 1a39 e6f9 1ebd
00000090: 3f57 983c 8738 4fbb 7c0a 083d b957 c0ba
000000a0: 467e f1bc 38a8 813c 3ebd 22bd c623 52ba
000000b0: 7566 eb3c 79e3 6139 202b fa3c 1c26 be3c
000000c0: 7a04 0e3f a3f4 9b3e db63 a03e bf44 8b3e
000000d0: 81bd 093f 9e8e da3e 1a00 993e 638b ce3e
000000e0: 4b8b 613e 7e79 523e b537 b53e 51b7 b93e
000000f0: 260f b03e a79f 353f 728c a93e 0ea5 b03e
0.41072258 0.27336133 0.30889973 0.114634804 0.5237056 0.43165144 0.31688988 0.27718765
0.1922135 0.33189735 0.29997572 0.35568985 0.31869563 0.64053714 0.3151029 0.30060127
1.1172734 1.1188164 1.0330124 1.264436 1.1870171 1.2365829 1.0421813 1.0663233
0.9976365 1.1554655 1.0293425 1.0706762 1.151975 0.9726261 1.1015947 1.2377845
-0.0034525588 0.0008304195 0.00014746966 -0.03881254 0.01859629 -0.0031619386 0.033213124 -0.0014674581
-0.029479157 0.015827283 -0.039731257 -0.0008016195 0.028735379 0.00021542412 0.030538142 0.023211531
0.5547558 0.3046008 0.31326184 0.27200887 0.53804785 0.42686933 0.2988289 0.4034072
0.22025792 0.20554158 0.35394064 0.36272672 0.34386557 0.70946735 0.33114964 0.34500927

while/MatMul f4 [64, 2]
00000000: feb5 2d40 0713 3a3f df92 363f fad1 0f3e
00000010: bdcb 08c0 bbba cfbe 2ce2 013f 04cc 993f
00000020: 699f eebe 41e1 863d 4d3d 8bbf 64bf 0dbf
00000030: 998a 933e 123b 9e3e 981e 803f e325 b93e
00000040: 747d 31bf bde1 5bbe 64e5 ddbe fff1 c43e
00000050: 8cd6 6fbf f6d5 14bf 2f26 833e 8322 4a3f
00000060: 962a f63f 206a 8e3f 8683 0f3f d213 aabf
00000070: 3f58 c83e 54fc 3d3e d71d 033e c775 ad3d
00000080: d9aa 3940 8030 6cbf b58b 903f 3153 a93e
00000090: 5e80 e8bf 8466 463f 3266 85bd e976 ae3f
000000a0: 5698 8cbf 5285 85bd 7357 81bf 3027 103f
000000b0: f001 cc3e a37a 7b3f 3fbd 633f e2d9 bf3e
000000c0: 89e7 c63e ecaf 4dbe 4ffc 4abd 2d5c d2be
000000d0: 6746 99be d238 223e 42ca 16bf fc04 813e
000000e0: 4096 0140 e645 1740 bcff 0cbf e3d0 05c0
000000f0: b6db 89be add3 c9be e011 243f 7c4b 093f
00000100: 41c5 493f ce13 913f 8a23 e93e 5e72 2bbf
00000110: b3ed ba3f 5a0c 443f 1a4a 0a3d cc1c 413f
00000120: ccea 07c0 96d3 483e a780 8ebf 12c1 fabe
00000130: 47bb b9be b930 a83f 2f2c 733e 7ee9 2fbf
00000140: baaa 0dbf 2b4b 843e ada7 793f 4c18 ecbe
00000150: 1d2e 2bbf 2565 01bf 73a8 eb3e da7b 98bf
00000160: 232b 73bf 94c0 0a3f fce4 083f 35fe c7bf
00000170: 6b4b b1bf 3ed0 823e bdea 6fbf 7bd0 da3e
00000180: b243 5c40 cec4 653f 62f7 6d3f ae5f ef3e
00000190: 634b c1bf 28c6 24bd c451 cf3d a717 ed3f
000001a0: 40c0 7abf 8bb8 ec3d cf3f 89bf 8a15 0abf
000001b0: a5c1 02be 4d03 643f 8b84 ee3f e495 9d3f
000001c0: d9b0 8ebe 8b7f 83be c1d0 4bbe 8dee 303f
000001d0: 7fe1 48be d7c0 4bbf 7d5b 52be 67c7 4f3f
000001e0: 9910 1540 43a1 1a40 a19a 303f 3405 a7bf
000001f0: 384a 2f3f c0a2 90bd d522 703f 1e13 523d
2.714233 0.72685283 0.7131786 0.14044943 -2.1374352 -0.40572152 0.50735736 1.2015386
-0.46605995 0.065859325 -1.0878083 -0.55370164 0.2881668 0.30904442 1.0009336 0.36161718
-0.6933205 -0.21472831 -0.43339074 0.38465878 -0.9368675 -0.5813898 0.2561507 0.7895891
1.9231746 1.1126137 0.56060064 -1.3287299 0.39129826 0.18553287 0.12804352 0.0846973
2.9010527 -0.92261505 1.1292635 0.33071283 -1.8164175 0.77500176 -0.06513633 1.3630038
-1.0983989 -0.065195695 -1.0104812 0.56309795 0.39845228 0.98234004 0.8896064 0.3747092
0.38848522 -0.2008664 -0.049557026 -0.4108595 -0.29936525 0.15841988 -0.5890237 0.25199115
2.0247955 2.3636413 -0.5507772 -2.0908744 -0.2692544 -0.39419308 0.64089775 0.53630805
0.7881661 1.1334169 0.45534927 -0.66971385 1.460379 0.76581347 0.033762075 0.75434566
-2.1237059 0.19611964 -1.1133012 -0.48975426 -0.36275694 1.3139869 0.23747323 -0.68715656
-0.55338633 0.258386 0.9752148 -0.46112287 -0.6686724 -0.5054496 0.46026954 -1.1912796
-0.94987696 0.542001 0.534744 -1.5624453 -1.3851141 0.255495 -0.9371756 0.42737183
3.4416318 0.89753425 0.929556 0.46752685 -1.5101131 -0.04022804 0.101230174 1.8522843
-0.979496 0.11558636 -1.0722598 -0.53939116 -0.12769182 0.89067537 1.8634199 1.2311368
-0.278693 -0.25683245 -0.19903852 0.69114 -0.1961727 -0.79591125 -0.20542713 0.8116364
2.329138 2.4160926 0.68985945 -1.3048463 0.68472624 -0.07062292 0.9380315 0.051287763

while/MatMul_11 i1 [64, 16] scale=0.015412077 zero_point=0
00000000: f0ad 1a01 021d 06a3 06f9 e3f9 002c 0f42
00000010: 0105 deeb fc2c ea18 0e06 0e19 ed28 f602
00000020: ae16 f9e2 f9e4 dc1f e41b 0c30 e810 0adc
00000030: 5624 dc02 b1ae ff3d 024a 1925 fd1a d9ee
00000040: d21c f2dc 16f1 1c3c df0f 1721 14d2 09ec
00000050: bdf8 d5b3 372b f00b e619 fa2f 003b 090b
00000060: 6810 301c ded0 2242 31fe d801 2427 0401
00000070: 8b2b 164b c2e3 3702 b501 d9de e7c2 04c6
00000080: 0cf6 d6ee 1729 03c5 1801 08fe fd47 171c
00000090: 16cc 1b08 3303 39db 11e6 d9cd 34ea 253f
000000a0: 4114 e8e8 efe1 152e 1712 000b 13f9 ecfb
000000b0: 3e00 19fa c4c5 2130 2808 f402 17e2 f502
000000c0: d6e2 23e4 0d05 0bdf c9fe ef20 eedc 1f0a
000000d0: 28ff 25c9 f3d8 e735 1018 cb1b 094a 080f
000000e0: f106 ef08 0406 35f2 14e4 fcdc f4f3 13f0
000000f0: f814 bdda 002d db1a 0d0d 0e26 e040 12f8
-0.24659324 -1.2792025 0.400714 0.015412077 0.030824155 0.44695026 0.092472464 -1.4333231
0.092472464 -0.10788454 -0.44695026 -0.10788454 0.0 0.6781314 0.23118116 1.0171971
0.015412077 0.07706039 -0.52401066 -0.32365364 -0.06164831 0.6781314 -0.3390657 0.36988986
0.21576908 0.092472464 0.21576908 0.38530195 -0.29282945 0.6164831 -0.15412077 0.030824155
-1.2637904 0.3390657 -0.10788454 -0.46236232 -0.10788454 -0.43153816 -0.5548348 0.47777438
-0.43153816 0.41612607 0.18494493 0.7397797 -0.36988986 0.24659324 0.15412077 -0.5548348
1.3254386 0.5548348 -0.5548348 0.030824155 -1.2175541 -1.2637904 -0.015412077 0.94013673
0.030824155 1.1404938 0.38530195 0.5702469 -0.046236232 0.400714 -0.601071 -0.2774174
-0.7089555 0.43153816 -0.21576908 -0.5548348 0.3390657 -0.23118116 0.43153816 0.92472464
-0.50859857 0.23118116 0.35447776 0.50859857 0.30824155 -0.7089555 0.1387087 -0.30824155
-1.0326092 -0.12329662 -0.6627193 -1.1867299 0.84766424 0.6627193 -0.24659324 0.16953285
-0.400714 0.38530195 -0.092472464 0.7243676 0.0 0.90931255 0.1387087 0.16953285
1.602856 0.24659324 0.7397797 0.43153816 -0.52401066 -0.7397797 0.52401066 1.0171971
0.7551918 -0.030824155 -0.6164831 0.015412077 0.5548348 0.601071 0.06164831 0.015412077
-1.803213 0.6627193 0.3390657 1.1559058 -0.95554876 -0.44695026 0.84766424 0.030824155
-1.1559058 0.015412077 -0.601071 -0.52401066 -0.38530195 -0.95554876 0.06164831 -0.8939005
0.18494493 -0.15412077 -0.6473073 -0.2774174 0.35447776 0.6318952 0.046236232 -0.90931255
0.36988986 0.015412077 0.12329662 -0.030824155 -0.046236232 1.0942575 0.35447776 0.43153816
0.3390657 -0.801428 0.41612607 0.12329662 0.7860159 0.046236232 0.8784884 -0.5702469
0.26200533 -0.400714 -0.601071 -0.7860159 0.801428 -0.3390657 0.5702469 0.97096086
1.001785 0.30824155 -0.36988986 -0.36988986 -0.26200533 -0.47777438 0.32365364 0.7089555
0.35447776 0.2774174 0.0 0.16953285 0.29282945 -0.10788454 -0.30824155 -0.07706039
0.95554876 0.0 0.38530195 -0.092472464 -0.92472464 -0.90931255 0.50859857 0.7397797
0.6164831 0.12329662 -0.18494493 0.030824155 0.35447776 -0.46236232 -0.16953285 0.030824155
-0.6473073 -0.46236232 0.5394227 -0.43153816 0.200357 0.07706039 0.16953285 -0.50859857
-0.84766424 -0.030824155 -0.26200533 0.49318647 -0.2774174 -0.5548348 0.47777438 0.15412077
0.6164831 -0.015412077 0.5702469 -0.84766424 -0.200357 -0.6164831 -0.38530195 0.8168401
0.24659324 0.36988986 -0.8168401 0.41612607 0.1387087 1.1404938 0.12329662 0.23118116
-0.23118116 0.092472464 -0.26200533 0.12329662 0.06164831 0.092472464 0.8168401 -0.21576908
0.30824155 -0.43153816 -0.06164831 -0.5548348 -0.18494493 -0.200357 0.29282945 -0.24659324
-0.12329662 0.30824155 -1.0326092 -0.5856589 0.0 0.6935435 -0.5702469 0.400714
0.200357 0.200357 0.21576908 0.5856589 -0.49318647 0.98637295 0.2774174 -0.12329662
