hand-gesture-recognition/model/keypoint_classifier/keypoint_classifier.tflite (tflite, 9144 bytes, 8 tensors)

sequential_45/dense_183/BiasAdd/ReadVariableOp f4 [4]
-0.109506086 -0.16643989 0.2911282 -0.0151821785
00000000: ba44 e0bd 386f 2abe c10e 953e acbe 78bc

sequential_45/dense_182/BiasAdd/ReadVariableOp f4 [32]
-0.024987167 -0.0680367 -0.13373315 -0.004723249 0.11495515 0.0025252253 0.07231895 0.07688524
0.10417117 0.007655312 0.017073696 0.038660884 -0.027353276 0.036930732 0.004040146 0.1340205
-0.015978284 0.01826574 -0.059098247 0.11423684 0.07957727 -0.03877565 0.03258132 -0.016009323
0.115518175 0.046951637 -0.033128418 -0.029301813 0.17153417 0.14983925 0.0049154935 -0.04867863
00000000: e3b1 ccbc d356 8bbd 58f1 08be 7cc5 9abb
00000010: 9b6d eb3d 407e 253b f51b 943d 0276 9d3d
00000020: b257 d53d 69d9 fa3b 23de 8b3c e05a 1e3d
00000030: fa13 e0bc ae44 173d 3363 843b ac3c 093e
00000040: e4e4 82bc 08a2 953c 0111 72bd 01f5 e93d
00000050: 68f9 a23d 37d3 1ebd fd73 053d fc25 83bc
00000060: cb94 ec3d 5c50 403d aab1 07bd 5b0a f0bc
00000070: a7a6 2f3e 766f 193e 2612 a13b 3e63 47bd

sequential_45/dense_181/BiasAdd/ReadVariableOp f4 [16]
0.004122923 -0.029538253 0.03693363 0.015953902 -0.018158855 0.12237056 0.087413825 -0.02484703
-0.044703033 0.09006622 0.23839654 0.009712635 0.011922796 -0.0021069543 0.026317224 0.08875678
00000000: 9619 873b 35fa f1bc b847 173d c2b1 823c
00000010: e1c1 94bc 6b9d fa3d 0506 b33d 008c cbbc
00000020: 871a 37bd a374 b83d 391e 743e be21 1f3c
00000030: d557 433c d414 0abb 3897 d73c 1dc6 b53d

sequential_45/dense_180/BiasAdd/ReadVariableOp f4 [16]
-0.08455989 0.10834503 -0.07196021 -0.0025456348 -0.10188747 0.022815527 0.035622403 -0.08314763
-0.13424931 0.007808507 0.005379438 0.02668124 0.2342479 -0.031110838 0.008288056 0.04989294
00000000: bc2d adbd 00e4 dd3d e05f 93bd aad4 26bb
00000010: 61aa d0bd a1e7 ba3c cce8 113d 4e49 aabd
00000020: a778 09be 81de ff3b ff45 b03b 9e92 da3c
00000030: aede 6f3e 28dc febc a0ca 073c 8a5c 4c3d

sequential_45/dense_180/MatMul f4 [16, 42]
0.08855814 0.31472313 0.2550778 0.13284619 -0.049717214 -0.13557804 -0.22330512 0.0077503286
-0.21191359 -0.054011185 -0.22994946 0.035393566 -0.21057297 -0.035886735 -0.124298535 -0.07511408
0.018648779 0.3132843 0.13723733 -0.03477813 -0.16905503 -0.24142492 -0.094166346 0.10434683
-0.057241853 -0.16027358 0.017859006 0.06632818 -0.19515614 0.23707059 0.1557042 -0.06536985
-0.16088347 -0.17059682 0.08700409 -0.24809226 0.11728327 -0.11007583 0.15089852 0.022591285
-0.024378765 0.04158001 0.29234236 -0.15488933 0.19091743 -0.054287232 -0.23059124 0.22215687
-0.21196817 0.28662345 0.06239862 -0.1393991 -0.07230038 0.20342949 -0.25858647 -0.20325512
-0.0654585 -0.021299228 0.010715414 0.19875096 -0.3234115 0.053652134 0.101965494 0.11461531
-0.018313082 -0.07607997 0.22736333 -0.14561242 0.11147959 -0.16594592 -0.008717106 0.043755926
-0.053163942 0.34682775 0.23396395 0.27864048 -0.10460988 0.13538443 0.005889789 -0.03053002
0.34436217 0.1298128 0.12953608 -0.0098381 0.17376226 -0.07858023 -0.06426044 0.12254594
-0.23703438 0.2112837 -0.24140309 -0.15609889 -0.017636407 0.14211185 -0.13021605 0.23352937
-0.26679897 0.24609374 0.30264452 -0.19497387 -0.20374057 0.035620555 -0.23606671 0.25505576
0.18256725 0.08466128 -0.056702986 0.25914946 0.19043681 -0.2184418 0.23754029 0.26613724
0.21274139 -0.02865941 0.15927315 -0.005026777 -0.17178914 -0.09836697 0.2447925 0.05120163
-0.26989493 -0.15366836 0.00076596654 -0.18916506 -0.35988605 0.20522776 -0.27645186 -0.10242641
0.34118125 0.119293 0.34452015 0.07982483 0.3366259 0.21893564 0.0613601 -0.26964247
-0.027032435 0.3232608 0.10719035 -0.10720465 0.117697075 0.15393941 0.1042402 0.07303278
0.17504297 0.22099447 0.19839323 -0.010400383 0.259963 -0.045920577 0.078376524 -0.054031994
0.2902541 0.23528297 0.20578173 0.18535875 0.37950844 -0.28759983 -0.15259491 0.23584041
-0.25608733 0.2749345 0.19555646 0.23897141 -0.21888791 -0.24005386 0.14373401 -0.033528015
0.31009442 0.27244478 -0.22560176 0.14946012 0.04627257 0.057353087 0.2077541 0.2765721
-0.13401535 0.10773749 -0.19914687 0.25967935 0.15550105 0.25253403 -0.058511842 0.062101167
0.0965701 -0.20365821 0.10735095 -0.09431686 0.0014188318 0.056876615 0.30358967 -0.5656572
0.10933643 -0.6540186 -0.054631 0.14625354 -0.23584214 -0.07623852 -0.081112385 -0.039381966
-0.08395955 -0.42253664 -0.17408238 0.1113273 -0.011104531 0.0011873991 -0.15153766 0.15758829
0.13644242 -0.2306337 0.10628328 0.009467721 0.07061802 -0.10266621 0.113642015 0.09861404
0.09350694 -0.21812534 -0.021195998 -0.035571426 -0.14535607 0.19298463 0.21487251 -0.21615374
0.06690189 0.19800508 -0.009644462 -0.03382378 -0.07150243 0.29281113 -0.2788587 -0.0063937847
0.14494748 0.1376606 -0.34983948 -0.21372035 -0.27760506 -0.23300762 0.007167053 0.061586868
-0.13536452 0.07034426 -0.3152352 -0.007899711 -0.1974076 0.077188805 -0.02557148 -0.038215473
-0.07653458 0.070003286 -0.02977673 0.13703811 -0.25622207 -0.21294576 0.24877839 -0.13417122
00000000: f85d b53d 6423 a13e 8f99 823e d508 083e
00000010: 47a4 4bbd f8d4 0abe 19aa 64be 78f6 fd3b
00000020: e0ff 58be d53a 5dbd df77 6bbe d8f8 103d
00000030: 71a0 57be f8fd 12bd 3b90 febd 69d5 99bd
00000040: 53c5 983c cd66 a03e f187 0c3e 8373 0ebd
00000050: c31c 2dbe 1838 77be 49da c0bd cab3 d53d
00000060: 6f76 6abd c21e 24be 0d4d 923c 12d7 873d
00000070: 03d7 47be a2c2 723e ec70 1f3e a1e0 85bd
00000080: a3be 24be efb0 2ebe 332f b23d e60b 7ebe
00000090: 3632 f03d 706f e1bd 2485 1a3e 5c11 b93c
000000a0: fab5 c7bc cd4f 2a3d e6ad 953e 4f9b 1ebe
000000b0: dc7f 433e 4a5c 5ebd 1c20 6cbe 177d 633e
000000c0: 2f0e 59be 4fc0 923e b295 7f3d a3be 0ebe
000000d0: 3912 94bd d24f 503e 7265 84be 1c22 50be
000000e0: 1b0f 86bd b87b aebc b48f 2f3c 5f85 4b3e
000000f0: 3196 a5be 57c2 5b3d 49d3 d03d 6fbb ea3d
00000100: 5105 96bc d1cf 9bbd efd1 683e 6c1b 15be
00000110: 694f e43d baed 29be 31d2 0ebc 6a39 333d
00000120: 6fc2 59bd 6893 b13e 3f94 6f3e f7a9 8e3e
00000130: b43d d6bd 37a2 0a3e 22ff c03b 181a fabc
00000140: 3d50 b03e a6ed 043e 1ba5 043e fb2f 21bc
00000150: bcee 313e acee a0bd fa9a 83bd 5ef9 fa3d
00000160: 24b9 72be c15a 583e 5f32 77be 63d8 1fbe
00000170: 3a7a 90bc c585 113e 5b57 05be 5322 6f3e
00000180: e099 88be ffff 7b3e 39f4 9a3e 3ba7 47be
00000190: 5ea1 50be dce6 113d 79bb 71be ab96 823e
000001a0: e9f2 3a3e e562 ad3d 6441 68bd 3daf 843e
000001b0: de01 433e 35af 5fbe c33d 733e 2443 883e
000001c0: e1d8 593e 24c7 eabc 8018 233e a9b7 a4bb
000001d0: 7ee9 2fbe 9f74 c9bd e3aa 7a3e cdb8 513d
000001e0: ab2f 8abe 3d5b 1dbe 25cb 483a 7cb4 41be
000001f0: fc42 b8be 3a27 523e 198b 8dbe f0c4 d1bd
00000200: 4faf ae3e e34f f43d f264 b03e 337b a33d
00000210: 3b5a ac3e aa30 603e ba54 7b3d 940e 8abe
00000220: 2073 ddbc 7182 a53e 9d86 db3d 1d8e dbbd
00000230: 2a0b f13d 4ba2 1d3e e37b d53d 3692 953d
00000240: 773e 333e 604c 623e 9827 4b3e 5e66 2abc
00000250: df19 853e 3717 3cbd df83 a03d a750 5dbd
00000260: 2f9c 943e 05ee 703e 72b8 523e afce 3d3e
00000270: ee4e c23e 4940 93be d741 1cbe 2680 713e
00000280: e11d 83be 37c4 8c3e f43f 483e ecb4 743e
00000290: 2724 60be aed0 75be 022f 133e ac54 09bd
000002a0: b2c4 9e3e e27d 8b3e 2604 67be 130c 193e
000002b0: 4e88 3d3d 12eb 6a3d 7ebd 543e dc9a 8d3e
000002c0: 523b 09be 79a5 dc3d 28ed 4bbe b1f4 843e
000002d0: ab3b 1f3e 244c 813e 1daa 6fbd cb5d 7e3d
000002e0: 8bc6 c53d c78b 50be d1da db3d 3329 c1bd
000002f0: 18f8 b93a 74f7 683d 1b70 9b3e e9ce 10bf
00000300: c7eb df3d c36d 27bf c1c4 5fbd 7dc3 153e
00000310: 9a80 71be f122 9cbd 401e a6bd fc4e 21bd
00000320: fcf2 abbd b956 d8be a742 32be 91ff e33d
00000330: c7ef 35bc 81a2 9b3a b02c 1bbe d35e 213e
00000340: 90b7 0b3e 3e2b 6cbe 0cab d93d 801e 1b3c
00000350: 2ea0 903d a942 d2bd 25bd e83d 28f6 c93d
00000360: 9180 bf3d 405c 5fbe 3ba3 adbc 58b3 11bd
00000370: 39d8 14be c39d 453e 8a07 5c3e 6857 5dbe
00000380: dc03 893d d8c1 4a3e ce03 1ebc ce8a 0abd
00000390: de6f 92bd 57eb 953e 91c6 8ebe f482 d1bb
000003a0: 1d6d 143e e6f6 0c3e 291e b3be 82d9 5abe
000003b0: 4022 8ebe 8d99 6ebe 99d9 ea3b 8342 7c3d
000003c0: ff9c 0abe a710 903d 8266 a1be ca6d 01bc
000003d0: 3825 4abe 2a15 9e3d 487b d1bc d487 1cbd
000003e0: 29be 9cbd e25d 8f3d 54ee f3bc b853 0c3e
000003f0: 8a2f 83be 740e 5abe c3bf 7e3e 2e64 09be

sequential_45/dense_181/MatMul f4 [16, 16]
-0.052136723 0.3567505 0.26740912 0.18508458 0.42913696 0.28649426 0.24888942 0.42476124
-0.3124056 -0.31789494 0.29129097 0.1695964 -0.35951734 0.34410706 -0.4000498 -0.3645317
-0.007121676 0.23583187 -0.32720026 0.1923203 -0.024880942 0.1054218 0.27994263 0.13963933
0.16877468 -0.29475734 0.061184723 -0.078969166 0.5093251 -0.13916197 -0.023226814 -0.22066915
-0.17198198 -0.41069752 0.26653856 0.26568377 -0.3686523 -0.2851945 0.14533187 0.19321242
-0.02048499 -0.006114742 -0.014959088 0.05385021 -0.28993723 -0.1260538 0.36998147 -0.13950843
-0.15789494 0.09019173 -0.1934333 -0.2785317 -0.22341214 0.2605407 0.30078807 0.2971906
0.015864288 0.1574369 0.08598703 -0.3967338 0.16745633 0.1516416 -0.20282355 0.13539587
0.4584601 -0.07414276 0.015180392 0.2934085 -0.045094833 -0.13715768 -0.09814976 0.009071517
0.33018506 -0.06925754 0.30462918 -0.30558258 -0.013083648 0.081992835 -0.2773691 0.04242244
-0.34159297 -0.062903374 -0.124415874 -0.08733017 0.48257 -0.149671 -0.009961451 -0.28339055
0.24286065 0.39991972 -0.13334385 -0.17458865 0.0022477931 0.01807514 -0.27877566 0.05413808
0.2705057 0.4206357 -0.22873914 0.043328308 0.02717532 0.23764253 -0.38575768 -0.15721384
-0.08201757 0.0060241227 -0.19223846 0.03204404 0.483919 0.31087813 -0.21805385 -0.2111134
0.26555213 0.02521992 0.06197421 0.21955158 0.6832335 -0.29234138 0.029902609 0.21598083
0.42190933 0.32537812 -0.1089874 -0.4393098 -0.4333392 0.17189932 0.19405623 -0.2150503
0.16566686 -0.2540111 0.34619373 -0.32558566 0.5239764 0.27960056 0.13941245 -0.04891208
-0.18070173 -0.3902069 0.35628173 -0.45818686 -0.05323532 -0.30016422 0.26774523 0.16369043
0.4536062 -0.14293242 -0.037932333 0.1965251 -0.3978298 0.12257703 0.077254295 -0.27890545
0.23116614 -0.0877898 0.12742302 0.29299015 0.28046414 -0.06223132 0.06494743 0.39405024
-0.07790856 0.14518139 -0.24971667 -0.11314095 -0.26030442 -0.2173732 -0.023970066 0.43045145
0.010475289 -0.10056243 0.42144096 -0.20868017 -0.06566643 0.33402592 -0.33200487 0.15657097
0.041932885 0.0015663094 -0.2839896 0.28675282 0.017550832 0.44874147 -0.028474744 -0.3515936
-0.19129331 -0.1693003 -0.38369563 0.18980657 -0.2755506 0.25260508 -0.10965218 0.46125555
0.06331356 0.1278431 -0.17693967 0.27211785 -0.2186227 0.35383692 -0.011553448 0.31307596
0.20937489 -0.17955497 -0.089291036 0.030541267 -0.21129036 0.39652252 -0.35069546 -0.026025133
0.23540954 -0.3166014 0.32564193 0.09898739 0.26272276 0.2864831 -0.29824933 0.3219407
0.40785348 0.2109283 0.19120334 -0.18472746 -0.54820246 0.10909876 0.48334685 0.08283343
0.37628284 -0.13417923 0.08970926 -0.2759339 -0.061988536 -0.2742378 -0.20100823 -0.12321447
0.19200249 0.26641575 0.034274254 -0.30755368 -0.24906313 -0.0720338 0.3986177 0.47615358
-0.08429881 -0.053656217 -0.1000503 -0.36549875 -0.10815341 0.091524795 0.31966344 0.17098907
0.34816584 -0.28794444 0.3201213 -0.3367455 -0.16283597 0.4036082 -0.42135578 0.12295085
00000000: 518d 55bd 00a8 b63e d9e9 883e d086 3d3e
00000010: d7b7 db3e 60af 923e dedc 7e3e 4e7a d93e
00000020: a0f3 9fbe 20c3 a2be 1724 953e aeaa 2d3e
00000030: a812 b8be cd2e b03e 54d3 ccbe e6a3 babe
00000040: f35c e9bb e97d 713e cb86 a7be 9def 443e
00000050: 1ed3 cbbc 62e7 d73d a454 8f3e 9dfd 0e3e
00000060: 45d3 2c3e 6fea 96be d59c 7a3d 96ba a1bd
00000070: 2163 023f 7a80 0ebe 2946 bebc 18f7 61be
00000080: 0b1c 30be f246 d2be be77 883e b407 883e
00000090: ffbf bcbe 0305 92be e1d1 143e 7ad9 453e
000000a0: 23d0 a7bc 2c5e c8bb f616 75bc 0a92 5c3d
000000b0: a772 94be 3f14 01be 366e bd3e 4cdb 0ebe
000000c0: 36af 21be 71b6 b83d 6113 46be b59b 8ebe
000000d0: 27c6 64be 9765 853e e500 9a3e 5e29 983e
000000e0: d3f5 813c 2437 213e f819 b03d b120 cbbe
000000f0: ac79 2b3e f047 1b3e fab0 4fbe 37a5 0a3e
00000100: 48bb ea3e 29d8 97bd 2eb7 783c a439 963e
00000110: 5cb5 38bd 1073 0cbe be02 c9bd b3a0 143c
00000120: 040e a93e e6d6 8dbd 5bf8 9b3e 5275 9cbe
00000130: cc5c 56bc dceb a73d 5303 8ebe 27c3 2d3d
00000140: 46e5 aebe 7cd3 80bd c0cd febd 29da b2bd
00000150: 6a13 f73e 5b43 19be 5b35 23bc 9118 91be
00000160: 76b0 783e 47c2 cc3e 4a8b 08be 5ec7 32be
00000170: b64f 133b 5112 943c afbb 8ebe e4bf 5d3d
00000180: b97f 8a3e 905d d73e 983a 6abe 0679 313d
00000190: c79e de3c 9058 733e 0882 c5be aafc 20be
000001a0: d4f8 a7bd 0166 c53b 29da 44be 9c40 033d
000001b0: 3bc4 f73e 6b2b 9f3e 8249 5fbe 1c2e 58be
000001c0: 73f6 873e 019a ce3c abd8 7d3d 21d2 603e
000001d0: 64e8 2e3f c5ad 95be 51f6 f43c 142a 5d3e
000001e0: 8004 d83e f697 a63e c934 dfbd 37ed e0be
000001f0: a3de ddbe 6006 303e adb6 463e 2536 5cbe
00000200: 93a4 293e be0d 82be 4e40 b13e 2ab3 a6be
00000210: 5123 063f ce27 8f3e 23c2 0e3e 0858 48bd
00000220: e009 39be 33c9 c7be 8f6a b63e 7897 eabe
00000230: 470d 5abd 20af 99be e715 893e 779e 273e
00000240: 123f e83e e05c 12be ef5e 1bbd e03d 493e
00000250: 59b0 cbbe aa09 fb3d 8037 9e3d b2cc 8ebe
00000260: d1b6 6c3e 23cb b3bd 2e7b 023e ce02 963e
00000270: ff98 8f3e 45e6 7ebd 2803 853d f4c0 c93e
00000280: 868e 9fbd 6eaa 143e bab5 7fbe 71b6 e7bd
00000290: 9f46 85be 1597 5ebe df5c c4bc 2264 dc3e
000002a0: 8ca0 2b3c adf3 cdbd 1cc7 d73e 41b0 55be
000002b0: 1f7c 86bd 7205 ab3e 8bfc a9be 2454 203e
000002c0: d1c1 2b3d 9f4c cd3a 1667 91be 44d1 923e
000002d0: c3c6 8f3c 71c1 e53e de43 e9bc 1404 b4be
000002e0: 65e2 43be 0f5d 2dbe c173 c4be a75c 423e
000002f0: f814 8dbe 7455 813e 5291 e0bd b029 ec3e
00000300: 8aaa 813d 4de9 023e ac2f 35be 0853 8b3e
00000310: a1de 5fbe 1d2a b53e ac4a 3dbc 7e4b a03e
00000320: 5f66 563e 42dd 37be 38de b6bd ae31 fa3c
00000330: 805c 58be 0005 cb3e 5b8e b3be a932 d5bc
00000340: 330f 713e 9419 a2be 8aba a63e e7b9 ca3d
00000350: 9983 863e eaad 923e 23b4 98be 69d5 a43e
00000360: 2cd2 d03e 97fd 573e cfca 433e 3229 3dbe
00000370: ff56 0cbf 2c6f df3d 3d79 f73e 93a4 a93d
00000380: 25a8 c03e 4866 09be 7db9 b73d 3547 8dbe
00000390: b1e7 7dbd e668 8cbe 1ad5 4dbe de57 fcbd
000003a0: 4d9c 443e a567 883e 2963 0c3d ad77 9dbe
000003b0: 680a 7fbe 7586 93bd 9f17 cc3e 67ca f33e
000003c0: dba4 acbd 9fc6 5bbd 2ce7 ccbd a722 bbbe
000003d0: 897f ddbd 5a71 bb3d edaa a33e c217 2f3e
000003e0: cb42 b23e 746d 93be f0e6 a33e e869 acbe
000003f0: 79be 26be bca5 ce3e f2bb d7be a8cd fb3d

sequential_45/dense_182/MatMul f4 [32, 16]
0.28190336 0.13168462 0.3173686 -0.19118229 0.041582216 -0.34212896 0.35528478 0.25786552
0.09561993 0.31358513 0.14317341 -0.32344052 0.31364077 0.27245998 -0.24584103 -0.048679493
-0.096496366 0.06226397 0.2663185 0.049527913 0.23401025 0.2937339 -0.07849511 -0.3267382
0.042376257 -0.34740257 0.2534446 -0.09524852 0.25561148 -0.22751689 0.14632848 0.0567841
-0.16202272 0.30324772 -0.008762088 -0.28569326 0.06149745 -0.15218574 0.13097346 -0.042107396
-0.04162843 0.012386246 -0.29922158 0.24911591 0.36189762 0.34648433 0.075028405 0.21435063
-0.34751594 -0.17806685 -0.17788137 -0.0009605492 0.09238781 -0.045163993 -0.12863456 -0.020202596
0.057708893 -0.11379174 -0.022157868 -0.25811565 0.3066694 0.039849915 -0.24150668 -0.21346734
0.21646671 -0.12947147 -0.24457608 -0.123567864 -0.13100246 -0.2663721 0.11726333 -0.11261645
-0.34040654 -0.0004097051 0.3205818 -0.3490464 0.27316952 0.28325576 0.26400706 0.37226328
0.18743813 0.16750297 0.040737912 0.1090602 -0.260983 0.18948829 0.35475305 0.5050002
0.1451461 -0.19280598 0.0412213 0.10060147 -0.36698243 -0.15740007 -0.23043874 -0.033474717
-0.28428358 -0.1432708 -0.09955846 -0.25053138 -0.16633035 -0.08707111 -0.21376938 0.34357306
-0.24383928 0.09898574 0.1275576 0.31451187 0.2239 0.4638834 0.20141155 0.1308566
0.050699294 -0.19811295 -0.18751042 -0.17247032 -0.259438 0.026880179 0.14420237 -0.2667835
0.017823348 -0.00084826304 -0.2287153 0.37106746 0.22439232 0.052881695 0.18746412 0.24806485
-0.20237412 0.08633074 -0.07721236 0.19087063 0.020573694 0.36898315 -0.26517296 -0.27317733
0.28113192 0.28715932 0.055937942 0.31908634 -0.06644311 -0.071010076 -0.2814684 9.603772e-05
-0.26398623 0.058090635 -0.026094466 0.20256674 0.32314512 0.10634957 0.098875046 -0.1387451
-0.08918579 -0.04503866 -0.15679571 -0.28342867 0.010277356 0.28412798 -0.13254444 0.105688974
0.063592575 0.21712995 -0.25619605 -0.34203956 -0.1880833 0.27634522 0.34982422 0.1790919
0.047895208 -0.28544083 0.27406296 -5.70931e-05 -0.23623817 -0.12153308 0.09066587 -0.15167683
-0.103543125 -0.32988417 -0.24867915 -0.17587125 -0.2961546 0.06856578 -0.09374209 -0.24930502
0.20470357 0.10319469 0.33096826 0.20653896 -0.041241225 -0.34630913 -0.31757018 0.3039119
-0.14069892 -0.10982591 0.31834784 -0.2211274 -0.34213334 -0.10553969 0.27814782 -0.2120003
0.1891798 -0.1232901 -0.27102596 0.33058572 -0.14066456 -0.32639486 0.03339824 -0.15827641
-0.28042287 0.1676787 -0.29968628 -0.31491655 0.04382175 0.103736214 0.20387065 0.31811982
0.08081284 -0.18104447 -0.32580608 0.09245284 0.34261113 -0.11959064 0.0065324325 -0.09603499
-0.1820042 0.3031124 -0.18939406 -0.23205574 -0.31047046 -0.040678907 -0.17413819 -0.3326525
-0.32945022 0.23238163 0.058228046 0.25851005 0.25779533 0.31802043 0.19152144 -0.23764277
0.06660873 0.2859942 -0.035164792 0.033563636 0.1663329 -0.001477998 0.36294895 -0.2954939
-0.24696776 0.13833219 0.23403813 -0.24831101 -0.12512787 0.033805605 0.26442754 0.23913267
00000000: a355 903e 55d8 063e 237e a23e 4ac5 43be
00000010: 1d52 2a3d 872b afbe e3e7 b53e f306 843e
00000020: 62d4 c33d 3b8e a03e 0d9c 123e ff99 a5be
00000030: 8695 a03e e07f 8b3e c0bd 7bbe 2664 47bd
00000040: e39f c5bd 8108 7f3d e65a 883e c8dd 4a3d
00000050: 62a0 6f3e 4a64 963e 0bc2 a0bd 3b4a a7be
00000060: ba92 2d3d c0de b1be 7ec3 813e a811 c3bd
00000070: 82df 823e 30fa 68be 22d7 153e 7296 683d
00000080: 49e9 25be 4943 9b3e dc8e 0fbc 6346 92be
00000090: c0e4 7b3d 94d6 1bbe e81d 063e ce78 2cbd
000000a0: 9382 2abd aeef 4a3c 9233 99be 3e18 7f3e
000000b0: a54a b93e 6566 b13e 7ea8 993d bb7e 5b3e
000000c0: 9ced b1be 2857 36be 8926 36be 5ecd 7bba
000000d0: d235 bd3d e1fd 38bd c7b8 03be ea7f a5bc
000000e0: 2960 6c3d a50b e9bd 6b84 b5bc bc27 84be
000000f0: c603 9d3e aa39 233d 874d 77be 2f97 5abe
00000100: 73a9 5d3e 2b94 04be 2772 7abe 2611 fdbd
00000110: 8225 06be ed61 88be c227 f03d 74a3 e6bd
00000120: c449 aebe b0cd d6b9 4c23 a43e 36b6 b2be
00000130: e0dc 8b3e e606 913e ef2b 873e 4b99 be3e
00000140: c8ef 3f3e e685 2b3e ccdc 263d f45a df3d
00000150: 909f 85be 3809 423e 31a2 b53e b147 013f
00000160: 2ea1 143e ee6e 45be aad7 283d 2508 ce3d
00000170: 1fe5 bbbe 7c2d 21be 22f8 6bbe c91c 09bd
00000180: 9e8d 91be 95b5 12be 4ee5 cbbd a645 80be
00000190: 8152 2abe 5752 b2bd 5ce6 5abe cfe8 af3e
000001a0: 01b1 79be 09b9 ca3d 769e 023e b307 a13e
000001b0: 0b46 653e 2082 ed3e d43e 4e3e 46ff 053e
000001c0: 10aa 4f3d 1fde 4abe bb02 40be 0f9c 30be
000001d0: 0fd5 84be d233 dc3c c9a9 133e d997 88be
000001e0: 4502 923c f85d 5eba 5834 6abe 8efc bd3e
000001f0: 1ac7 653e 7a9a 583d 98f6 3f3e b604 7e3e
00000200: 293b 4fbe 2cce b03d 8421 9ebd 9773 433e
00000210: 2a8a a83c 5ceb bc3e c0c4 87be e6dd 8bbe
00000220: 86f0 8f3e 8c06 933e 2f1f 653d 495f a33e
00000230: 5313 88bd bb6d 91bd a01c 90be dc67 c938
00000240: 3429 87be 72f0 6d3d 10c4 d5bc a86d 4f3e
00000250: 4773 a53e cecd d93d 007f ca3d 3213 0ebe
00000260: 0aa7 b6bd 757a 38bd 0e8f 20be 901d 91be
00000270: 5b62 283c 3979 913e bbb9 07be 7673 d83d
00000280: d33c 823d 5057 5e3e 212c 83be cf1f afbe
00000290: e998 40be 1f7d 8d3e 291c b33e de63 373e
000002a0: c42d 443d 4d25 92be fb51 8c3e 4077 6fb8
000002b0: 6be8 71be 56e6 f8bd 07af b93d 2c51 1bbe
000002c0: 6b0e d4bd 94e6 a8be bfa5 7ebe 9817 34be
000002d0: 93a1 97be 376c 8c3d dafb bfbd d149 7fbe
000002e0: d09d 513e bd57 d33d ac74 a93e f37e 533e
000002f0: 8fec 28bd 6e4f b1be 8f98 a2be 579a 9b3e
00000300: 6113 10be 68ec e0bd 7dfe a23e 396f 62be
00000310: 1a2c afbe 3125 d8bd 6469 8e3e 9b16 59be
00000320: 59b8 413e 857f fcbd eac3 8abe 8842 a93e
00000330: 5f0a 10be 3a1d a7be 98cc 083d 3613 22be
00000340: 9693 8fbe f7b3 2b3e 7b70 99be be3c a1be
00000350: 6f7e 333d a773 d43d 78c3 503e 9ae0 a23e
00000360: 3481 a53d b963 39be 0ed0 a6be ea57 bd3d
00000370: ba6a af3e f0eb f4bd 040e d63b fead c4bd
00000380: 4f5f 3abe 8c31 9b3e 84f0 41be 05a0 6dbe
00000390: fcf5 9ebe ed9e 26bd 4851 32be 6e51 aabe
000003a0: b3ad a8be 73f5 6d3e 8880 6e3d 6e5b 843e
000003b0: c0fd 833e 93d3 a23e 321e 443e a058 73be
000003c0: 286a 883d d56d 923e f508 10bd 067a 093d
000003d0: 2c53 2a3e 62b9 c1ba 72d4 b93e fa4a 97be
000003e0: 1ee5 7cbe f4a6 0d3e b1a7 6f3e 3e45 7ebe
000003f0: 8521 00be bf77 0a3d 0c63 873e 32df 743e

sequential_45/dense_183/MatMul f4 [4, 32]
0.14578097 -0.3428999 0.33401418 0.36359394 -0.22385018 0.48240575 -0.12451535 0.44090745
0.4072321 0.016444733 0.29803425 -0.2532824 -0.3823415 0.1014629 -0.16179635 -0.07547402
-0.23104912 0.2600166 -0.04131513 0.012583475 0.17805038 -0.040573705 0.3995724 -0.22757828
0.29810616 0.34450486 0.2953848 -0.10122337 -0.24433275 -0.4156484 -0.030013727 -0.30490503
0.4728662 0.3858778 0.3422682 0.004457685 0.45296448 -0.25189218 0.2291297 -0.31733498
-0.013723408 0.33519208 -0.2932302 -0.19459781 0.024293577 -0.057242107 -0.35475674 -0.15521687
0.02744286 0.38899517 0.31404468 -0.30124557 -0.4160499 0.22776307 0.15635316 -0.41643456
-0.23347926 -0.0030791713 -0.107176654 0.036758438 -0.11717236 0.31584403 -0.019618973 0.17413725
-0.0022930368 0.029010782 -0.4738838 0.31433064 0.11120361 -0.30380005 -0.43340755 0.14714527
0.4089695 0.18686715 0.30846888 -0.027375184 -0.23527226 -0.31147635 -0.12068222 0.32496375
-0.53642726 0.37015384 -0.007973413 0.1912336 -0.034170445 -0.3243572 0.0040811677 -0.30989486
0.20506392 -0.59898037 -0.31116313 0.16170096 0.26205125 0.22573404 0.039974503 -0.45825267
-0.48447677 -0.07366477 -0.06979392 0.09532626 -0.31107062 0.39143142 0.17038117 0.39166176
0.429937 0.33537346 -0.09207492 -0.085016765 -0.36935008 0.13492501 0.084870346 -0.28546974
-0.07961318 0.21186347 -0.03600731 -0.14700375 0.294652 0.06339125 0.24851945 0.13543697
-0.34464464 0.45701802 -0.16945751 0.19116363 0.08521947 -0.22062968 -0.33309945 -0.101996705
00000000: 9b47 153e 9390 afbe e803 ab3e fc28 ba3e
00000010: fb38 65be e3fd f63e e701 ffbd 9fbe e13e
00000020: ba80 d03e 1bb7 863c f297 983e 3bae 81be
00000030: 44c2 c3be c8cb cf3d f1ad 25be 1f92 9abd
00000040: 2498 6cbe e520 853e 0e3a 29bd eb2a 4e3c
00000050: d752 363e 9d30 26bd c194 cc3e 480a 69be
00000060: 5fa1 983e f162 b03e ad3c 973e 334e cfbd
00000070: 5d32 7abe decf d4be 59df f5bc 831c 9cbe
00000080: 851b f23e c691 c53e c73d af3e c611 923b
00000090: f6ea e73e 03f8 80be faa0 6a3e bb79 a2be
000000a0: 25d8 60bc 4c9e ab3e 4522 96be a644 47be
000000b0: 5303 c73c b376 6abd ada2 b5be 2cf1 1ebe
000000c0: d9cf e03c 602a c73e 77ca a03e dc3c 9abe
000000d0: 7e04 d5be b93a 693e 0b1b 203e e936 d5be
000000e0: 3015 6fbe eccb 49bb 6f7f dbbd 0490 163d
000000f0: 10f8 efbd 4fb6 a13e f8b7 a0bc 0951 323e
00000100: c646 16bb 05a8 ed3c e6a0 f2be f2ef a03e
00000110: b8be e33d ae8b 9bbe 98e7 ddbe 40ad 163e
00000120: 7364 d13e 1a5a 3f3e a2ef 9d3e ec41 e0bc
00000130: 36eb 70be d479 9fbe 3d28 f7bd a661 a63e
00000140: 4c53 09bf ce84 bd3e eba2 02bc bed2 433e
00000150: 4ff6 0bbd 2612 a6be 51bb 853b 8aaa 9ebe
00000160: 47fc 513e c756 19bf c650 9fbe f094 253e
00000170: 952b 863e d326 673e 4ebc 233d 18a0 eabe
00000180: 570d f8be 8edd 96bd 1df0 8ebd 6a3a c33d
00000190: a644 9fbe b369 c83e 6778 2e3e e487 c83e
000001a0: b420 dc3e 12b6 ab3e c791 bcbd 451d aebd
000001b0: 741b bdbe c829 0a3e 81d0 ad3d 1729 92be
000001c0: 3c0c a3bd bdf2 583e 677c 13bd 2788 16be
000001d0: a0dc 963e 46d3 813d e27b 7e3e fdaf 0a3e
000001e0: 4375 b0be 44fe e93e 4586 2dbe 66c0 433e
000001f0: 8c87 ae3d bfec 61be 038c aabe a6e3 d0bd
